…
WARNING:tensorflow:From /usr/local/lib/python3.6/dist-packages/keras/backend/tensorflow_backend.py:3733: calling dropout (from tensorflow.python.ops.nn_ops) with keep_prob is deprecated and will be removed in a future version.
Instructions for updating:
Please use `rate` instead of `keep_prob`. Rate should be set to `rate = 1 - keep_prob`.
Model: "model_1"
__________________________________________________________________________________________________
Layer (type)                    Output Shape         Param #     Connected to                     
==================================================================================================
band (InputLayer)               (None, 256)          0                                            
__________________________________________________________________________________________________
hist (InputLayer)               (None, 256, 8)       0                                            
__________________________________________________________________________________________________
embedding_1 (Embedding)         (None, 256, 8)       64          band[0][0]                       
__________________________________________________________________________________________________
concatenate_1 (Concatenate)     (None, 256, 16)      0           hist[0][0]                       
                                                                 embedding_1[0][0]                
__________________________________________________________________________________________________
time_distributed_1 (TimeDistrib (None, 256, 40)      680         concatenate_1[0][0]              
__________________________________________________________________________________________________
cu_dnngru_1 (CuDNNGRU)          (None, 256, 80)      29280       time_distributed_1[0][0]         
__________________________________________________________________________________________________
spatial_dropout1d_1 (SpatialDro (None, 256, 80)      0           cu_dnngru_1[0][0]                
__________________________________________________________________________________________________
global_max_pooling1d_1 (GlobalM (None, 80)           0           spatial_dropout1d_1[0][0]        
__________________________________________________________________________________________________
meta (InputLayer)               (None, 10)           0                                            
__________________________________________________________________________________________________
dropout_1 (Dropout)             (None, 80)           0           global_max_pooling1d_1[0][0]     
__________________________________________________________________________________________________
concatenate_2 (Concatenate)     (None, 90)           0           meta[0][0]                       
                                                                 dropout_1[0][0]                  
__________________________________________________________________________________________________
dense_2 (Dense)                 (None, 128)          11648       concatenate_2[0][0]              
__________________________________________________________________________________________________
dense_3 (Dense)                 (None, 128)          16512       dense_2[0][0]                    
__________________________________________________________________________________________________
dropout_2 (Dropout)             (None, 128)          0           dense_3[0][0]                    
__________________________________________________________________________________________________
dense_4 (Dense)                 (None, 15)           1935        dropout_2[0][0]                  
==================================================================================================
Total params: 60,119
Trainable params: 60,119
Non-trainable params: 0
__________________________________________________________________________________________________
WARNING:tensorflow:From /usr/local/lib/python3.6/dist-packages/keras/optimizers.py:793: The name tf.train.Optimizer is deprecated. Please use tf.compat.v1.train.Optimizer instead.
…
