…
tcmalloc: large alloc 1504362496 bytes == 0x452e2000 @  0x7f66b1e501e7 0x7f66af9785e1 0x7f66af9db138 0x7f66af9db3f7 0x7f66afa733e8 0x50a635 0x50bfb4 0x507d64 0x509a90 0x50a48d 0x50cd96 0x507d64 0x509a90 0x50a48d 0x50cd96 0x509758 0x50a48d 0x50bfb4 0x509758 0x50a48d 0x50bfb4 0x507d64 0x50ae13 0x634c82 0x634d37 0x6384ef 0x639091 0x4b0d00 0x7f66b1a4db97 0x5b250a
Model: "model_2"
__________________________________________________________________________________________________
Layer (type)                    Output Shape         Param #     Connected to                     
==================================================================================================
hist (InputLayer)               (None, 256, 8)       0                                            
__________________________________________________________________________________________________
time_distributed_2 (TimeDistrib (None, 256, 40)      360         hist[0][0]                       
__________________________________________________________________________________________________
cu_dnnlstm_2 (CuDNNLSTM)        (None, 256, 80)      39040       time_distributed_2[0][0]         
__________________________________________________________________________________________________
spatial_dropout1d_2 (SpatialDro (None, 256, 80)      0           cu_dnnlstm_2[0][0]               
__________________________________________________________________________________________________
global_max_pooling1d_2 (GlobalM (None, 80)           0           spatial_dropout1d_2[0][0]        
__________________________________________________________________________________________________
meta (InputLayer)               (None, 10)           0                                            
__________________________________________________________________________________________________
dropout_3 (Dropout)             (None, 80)           0           global_max_pooling1d_2[0][0]     
__________________________________________________________________________________________________
concatenate_2 (Concatenate)     (None, 90)           0           meta[0][0]                       
                                                                 dropout_3[0][0]                  
__________________________________________________________________________________________________
dense_6 (Dense)                 (None, 128)          11648       concatenate_2[0][0]              
__________________________________________________________________________________________________
dense_7 (Dense)                 (None, 128)          16512       dense_6[0][0]                    
__________________________________________________________________________________________________
dropout_4 (Dropout)             (None, 128)          0           dense_7[0][0]                    
__________________________________________________________________________________________________
dense_8 (Dense)                 (None, 15)           1935        dropout_4[0][0]                  
==================================================================================================
Total params: 69,495
Trainable params: 69,495
Non-trainable params: 0
__________________________________________________________________________________________________
Training model 1 of 10, Patience: 10
Train on 183638 samples, validate on 785 samples
Epoch 1/1000
…
