…
tcmalloc: large alloc 1504362496 bytes == 0x506d4000 @  0x7fbf0f5941e7 0x7fbf0d0ba5e1 0x7fbf0d11ee88 0x7fbf0d11f147 0x7fbf0d1b7118 0x50ac25 0x50c5b9 0x508245 0x50a080 0x50aa7d 0x50d390 0x508245 0x50a080 0x50aa7d 0x50d390 0x509d48 0x50aa7d 0x50c5b9 0x509d48 0x50aa7d 0x50c5b9 0x508245 0x50b403 0x635222 0x6352d7 0x638a8f 0x639631 0x4b0f40 0x7fbf0f191b97 0x5b2fda
Model: "model_2"
__________________________________________________________________________________________________
Layer (type)                    Output Shape         Param #     Connected to                     
==================================================================================================
band (InputLayer)               (None, 256)          0                                            
__________________________________________________________________________________________________
hist (InputLayer)               (None, 256, 8)       0                                            
__________________________________________________________________________________________________
embedding_2 (Embedding)         (None, 256, 8)       64          band[0][0]                       
__________________________________________________________________________________________________
concatenate_3 (Concatenate)     (None, 256, 16)      0           hist[0][0]                       
                                                                 embedding_2[0][0]                
__________________________________________________________________________________________________
time_distributed_2 (TimeDistrib (None, 256, 40)      680         concatenate_3[0][0]              
__________________________________________________________________________________________________
cu_dnngru_2 (CuDNNGRU)          (None, 256, 80)      29280       time_distributed_2[0][0]         
__________________________________________________________________________________________________
spatial_dropout1d_2 (SpatialDro (None, 256, 80)      0           cu_dnngru_2[0][0]                
__________________________________________________________________________________________________
global_max_pooling1d_2 (GlobalM (None, 80)           0           spatial_dropout1d_2[0][0]        
__________________________________________________________________________________________________
meta (InputLayer)               (None, 10)           0                                            
__________________________________________________________________________________________________
dropout_3 (Dropout)             (None, 80)           0           global_max_pooling1d_2[0][0]     
__________________________________________________________________________________________________
concatenate_4 (Concatenate)     (None, 90)           0           meta[0][0]                       
                                                                 dropout_3[0][0]                  
__________________________________________________________________________________________________
dense_6 (Dense)                 (None, 128)          11648       concatenate_4[0][0]              
__________________________________________________________________________________________________
dense_7 (Dense)                 (None, 128)          16512       dense_6[0][0]                    
__________________________________________________________________________________________________
dropout_4 (Dropout)             (None, 128)          0           dense_7[0][0]                    
__________________________________________________________________________________________________
dense_8 (Dense)                 (None, 15)           1935        dropout_4[0][0]                  
==================================================================================================
Total params: 60,119
Trainable params: 60,119
Non-trainable params: 0
__________________________________________________________________________________________________
Training model 1 of 10, Patience: 10
Train on 183638 samples, validate on 785 samples
Epoch 1/1000
…
